REINFORCE/CartPole_lowstate(REINFORCE).pt (torch_old, 4440 bytes, 4 tensors)

linear1.weight f4 [128, 4]
000000 20 15 99 3f 5c 2c b3 3f 47 c9 6e c0 19 07 de bf
       1.1959572 1.3997912 -3.731035 -1.7345916
000010 2d b5 b1 bf 98 b3 2b c0 ab c9 e9 bf 65 bc 18 bf
       -1.3883415 -2.6828365 -1.8264669 -0.5966247
000020 47 7b f9 3d b2 60 ae 3e 1e 96 d2 be f4 67 f7 be
       0.121817164 0.34058148 -0.41130155 -0.48321497
000030 87 2b 24 bf 42 91 7c bf e7 ab 09 41 8e 5f 0e 40
       -0.6412892 -0.98659146 8.604468 2.2245822
000040 97 62 d3 be af 49 c8 3e 04 1c e7 3d 88 b9 a4 be
       -0.41286156 0.39118716 0.112846404 -0.321728
000050 b1 39 4a 3d 3b bd 11 3d f0 99 7e 3e 9a ec 29 be
       0.049371425 0.035580855 0.2486341 -0.16594163
000060 2a 28 39 bf a8 fb 56 bf 65 6c 17 3f a0 1d 8d 3f
       -0.7232691 -0.83977747 0.5914977 1.1024666
000070 56 a9 d7 3e 3f 63 c9 3f cc 1e 60 c0 b3 5e eb bf
       0.4212138 1.5733413 -3.5018797 -1.8388275
000080 58 11 c7 be 37 4f c5 bd e2 4b 0f 3e 2f a1 85 be
       -0.3888042 -0.0963425 0.13993791 -0.26099536
000090 00 98 ed be 85 d7 3c bf d0 e5 1f 3f 7f 8e 4f 3f
       -0.4640503 -0.73766357 0.6246004 0.81076807
0000a0 8e 07 ee bd 87 c2 10 3e 27 d5 1b 3e a8 27 cf 3d
       -0.11622535 0.14136706 0.1521803 0.10114986
0000b0 62 44 e3 3e 23 06 c0 3f 35 d9 71 c0 85 f7 b8 bf
       0.4438811 1.5001873 -3.7788823 -1.4450537
0000c0 13 e1 f8 3d b8 bc 19 3f a6 84 ca 3c 4f 28 83 bf
       0.121523045 0.60053587 0.024721455 -1.0246676
0000d0 2f 07 7d bf e7 2e 2b bf c1 67 f7 3e 11 6f 71 3f
       -0.98839086 -0.6686844 0.48321345 0.943101
0000e0 2e ca 2f bf 1e 01 84 3d b2 f6 2f be db 16 5b 3f
       -0.68667877 0.064455256 -0.1718395 0.8558175
0000f0 fb 20 66 3e 52 e8 fb be 75 f3 1c bf eb 15 97 3f
       0.22473519 -0.49200684 -0.61308986 1.1803564
000100 f8 b3 42 bf f2 dd 27 c0 43 83 ea bf 03 43 5b bf
       -0.7605586 -2.6229215 -1.8321308 -0.85649127
000110 fa 95 02 c0 4f d5 d4 bf df c3 d2 be 42 f5 e8 3e
       -2.0404038 -1.6627597 -0.41165063 0.45499617
000120 1b d1 90 3e aa 6c a2 be c8 e6 a5 3e 61 94 a3 be
       0.28284535 -0.3172353 0.32402635 -0.31949142
000130 51 9b be 3e b8 47 ec bd f7 6f b3 be 73 98 59 bd
       0.37227872 -0.11537117 -0.3504636 -0.053123903
000140 ec 51 5d 3f 37 21 a5 3f de c4 50 c0 d1 3e e7 bf
       0.8645313 1.2900761 -3.2620158 -1.8066045
000150 0d 89 7e bf d9 9f 43 bf dc c5 23 3f a8 c0 82 3f
       -0.9942787 -0.76415783 0.63973784 1.0215044
000160 61 e0 4c bd ae bd 6d 3e 7e c5 d5 3e 24 ae d9 be
       -0.050018672 0.23216888 0.41752237 -0.4251567
000170 3b a2 4c bf 53 49 11 bf 85 98 13 41 19 0f 17 40
       -0.79935044 -0.5675251 9.224736 2.3602965
000180 44 e9 03 3e 39 5c b4 be 90 05 97 3e 47 14 48 be
       0.12881953 -0.3522661 0.2949643 -0.19538985
000190 bc 34 97 3d 20 e1 24 3e 64 34 55 be d8 59 54 be
       0.07383105 0.16101503 -0.20820767 -0.20737398
0001a0 00 de 9b bd b5 c8 04 3f f0 12 bf 40 c8 04 a8 3f
       -0.076107025 0.51868755 5.9710617 1.3126459
0001b0 c3 07 c3 be 8b a7 34 bf 21 16 0a 41 41 80 0e 40
       -0.3809186 -0.7056815 8.630403 2.226578
0001c0 12 6f 87 bf 00 d9 8a bf 2f f7 1f 3f 70 5f 87 3f
       -1.0580771 -1.0847473 0.6248655 1.0576
0001d0 d5 3a d1 3f eb fb b3 3f 05 c1 0e c0 96 c0 9b bf
       1.6346079 1.4061254 -2.230531 -1.2168148
0001e0 7a 7f eb 3e 49 20 c1 3f 35 d4 66 c0 84 fd c8 bf
       0.45995694 1.5087978 -3.606702 -1.5702367
0001f0 7e 04 1a bf 2c 29 f4 be c5 19 0d 41 f0 7c 0c 40
       -0.60163105 -0.47687662 8.818791 2.1951256
000200 19 25 80 3f d1 a1 c3 3f a8 7e 7e c0 4e 03 ee bf
       1.0011321 1.5283757 -3.9764805 -1.8594759
000210 c2 67 b2 bd 40 62 51 be 73 ec 3c be 4a 71 6a 3f
       -0.087111965 -0.20447636 -0.18449573 0.91579115
000220 2a 3f 70 bf c1 d1 5a bf ce f0 60 3f c2 46 91 3f
       -0.9384638 -0.8547631 0.8786744 1.1349719
000230 c7 f0 91 bf 96 67 00 c0 d2 b1 9c bf 0c 3a 22 bf
       -1.1401604 -2.0063224 -1.2241766 -0.6336982
000240 9f 5f 88 be 68 30 bb bd 70 79 2c 3e 6b da de bd
       -0.26635453 -0.09140092 0.168432 -0.10881504
000250 e2 09 68 3e bf e9 d1 be 60 2b c4 3e 6c fe 8d bd
       0.2266002 -0.40998647 0.38314342 -0.06933293
000260 0d b5 bf 3e b4 f3 09 be 03 c9 75 3e 7a 51 63 3e
       0.37442818 -0.13471872 0.24002461 0.2219905
000270 36 02 27 be 1d 51 96 3c 93 2d 9e bd fa 1f b7 3e
       -0.16309437 0.018349225 -0.07723536 0.35766584
000280 30 44 04 be e0 82 ac bf 0a b9 c0 40 38 81 49 3f
       -0.12916636 -1.347744 6.022588 0.787128
000290 b7 66 90 3d 79 87 a4 3c b4 9f 6c be de 09 0b 3e
       0.07050841 0.02008413 -0.23107797 0.13577983
0002a0 5f 6c 96 bd 56 75 65 be 4f 3b 22 bd 30 92 9b be
       -0.07344889 -0.22408041 -0.039607342 -0.3038497
0002b0 8c 55 48 3f 3c e6 af 3f 75 76 5d c0 85 6b dd bf
       0.78255534 1.3742137 -3.460355 -1.7298437
0002c0 a7 3a 03 bf 82 df 21 bf 96 ff bf 3e 64 38 96 3f
       -0.5126137 -0.6323167 0.37499684 1.1735959
0002d0 47 e9 70 3d ae 5d 04 be 87 44 2f bd 1d e5 4d 3f
       0.05881622 -0.12926361 -0.042789962 0.80427724
0002e0 a5 59 e1 be fc ab df 3e a1 22 81 be af 43 a0 bd
       -0.44013706 0.436859 -0.25221732 -0.078254096
0002f0 74 a9 8b 3e f0 f7 a9 bf 7b 08 be 40 22 8a 2b 3f
       0.2727772 -1.327879 5.938535 0.6700765
000300 d7 26 f5 be 96 00 aa bf 00 70 0b 41 7b a5 11 40
       -0.47881195 -1.3281429 8.714844 2.2757251
000310 2a fd 3e be bf 70 ca 3e 98 4c c5 be 08 ae a7 be
       -0.18651262 0.39539143 -0.38535 -0.32749963
000320 b8 7e 22 bf 0c 15 12 bf 1e 67 0d 41 3f a5 0d 40
       -0.6347461 -0.57063365 8.837675 2.2132108
000330 0d a4 06 3f 5b 7c dd 3f 88 c9 86 c0 77 bb f1 bf
       0.5259407 1.7303575 -4.212101 -1.8885335
000340 5e 84 cd 3c 10 b3 85 3e b0 f6 2d be 37 b4 f8 be
       0.025087532 0.26113176 -0.16988635 -0.48574993
000350 a3 88 91 be c9 0f 7d 3d b1 5e dd bd 7c e6 b0 be
       -0.28424558 0.061782632 -0.108090766 -0.34550846
000360 24 cd 48 bf 5e c4 5f bf e4 bb 0b 41 04 57 1e 40
       -0.7843802 -0.8740901 8.733372 2.474061
000370 98 c6 5b 3f aa 8d bb 3f c3 fc 64 c0 b4 aa f9 bf
       0.85849905 1.4652607 -3.5779274 -1.950522
000380 99 62 cf 3e 58 e9 14 bd 8d ee a1 40 e6 dc 02 40
       0.40504912 -0.036355346 5.06037 2.0447326
000390 91 d7 13 3d c7 62 0b bf 3d 40 fb 40 e6 2d 22 40
       0.036094252 -0.544476 7.8515916 2.5340514
0003a0 12 fc b1 bf cc a2 00 c0 68 dd 74 bf 16 4f 50 3e
       -1.3905051 -2.0099363 -0.9565034 0.20342669
0003b0 b5 39 57 be 25 ad 46 be aa 64 cb 40 0e d3 dc 3f
       -0.21018107 -0.19401987 6.356038 1.7251909
0003c0 60 d8 a1 be de 16 d8 3c fb 69 8e be e1 eb bb be
       -0.31610394 0.026378091 -0.27815232 -0.367034
0003d0 b9 73 11 bf 85 23 17 c0 df 10 a7 bf 72 49 34 bf
       -0.56817204 -2.361543 -1.3052024 -0.7042457
0003e0 55 e9 8d bf 04 89 d6 bf f2 72 b0 bf 36 a2 ad bf
       -1.1086832 -1.6760564 -1.3785079 -1.3565128
0003f0 0c 55 ee 3e 81 b8 74 3f 0c f9 22 bd e0 55 1b bf
       0.4654926 0.9559403 -0.03978829 -0.6067791

linear1.bias f4 [128]
000000 1f a6 53 3e 61 a1 2e bf ac 3b e2 be f0 d2 02 3e
       0.20668839 -0.68214995 -0.4418615 0.12775779
000010 40 ef be be 64 46 af be 21 20 16 be 1e bc 2f 3e
       -0.37291908 -0.3423339 -0.14660694 0.17161605
000020 12 29 07 bf 60 d8 87 be e2 94 73 be ea 6d 39 3c
       -0.52797043 -0.2653227 -0.23787263 0.011317709
000030 9f d6 25 bf 91 97 76 be 01 bf c3 be d6 36 b5 be
       -0.6478061 -0.24081255 -0.38231662 -0.353934
000040 4d 78 1b bf 56 94 bf be 96 df 8d be 88 df 78 be
       -0.6073044 -0.3741786 -0.27709645 -0.2430402
000050 68 10 89 3d 11 fc 8e bd 03 b9 e7 be 4c 02 06 3e
       0.06692582 -0.069816716 -0.4525834 0.13086814
000060 a6 b7 af be b3 69 ad be ad 6b 3e 3e 10 11 3d 3e
       -0.343198 -0.33869705 0.18595763 0.1846354
000070 42 f6 a8 be df 4b 03 be 92 c3 8b 3d f6 64 0d 3e
       -0.3300038 -0.12821911 0.068244115 0.13808045
000080 7e 2d 03 3e 0e 22 ca be 4e 45 9c be 66 d6 00 bf
       0.12810323 -0.39479107 -0.30521625 -0.50327146
000090 6d cd bd be cc b7 bf be 81 5d f1 be c6 1d f7 be
       -0.3707079 -0.37444913 -0.4714165 -0.48264903
0000a0 39 96 f4 3d e4 2b a7 be 1c dc cf be f0 c2 2e 3e
       0.11942715 -0.32650673 -0.40597618 0.1706655
0000b0 03 cd 5f be b8 02 db be e3 54 84 be f2 a8 c2 3d
       -0.2185555 -0.42775512 -0.25846013 0.0950488
0000c0 24 e5 1a 3e 0d 8b e1 be e9 35 0c 3e 99 af 4e 3e
       0.15126473 -0.440514 0.1369244 0.20184173
0000d0 de b2 fb be 4d 94 d6 be ad ff 08 3e 97 f0 1c 3e
       -0.49159902 -0.4191002 0.13378783 0.15326153
0000e0 4d 77 47 3e 1b 79 a4 3e a9 4f 12 bf 34 1e 3b 3e
       0.19479103 0.32123646 -0.571528 0.1827324
0000f0 c0 86 fd be 17 c6 f9 be 9b 7a 11 bf 26 2b e5 be
       -0.4951687 -0.48783943 -0.56827706 -0.44759482
000100 57 97 00 bf 49 4b cb be 85 4d 09 3e ae ff f3 be
       -0.50230926 -0.39705876 0.13408478 -0.47656006
000110 47 99 ff 3d d5 35 88 be 3d 8d ea be a3 7a c0 be
       0.12480407 -0.2660357 -0.4581088 -0.37593564
000120 d3 71 ad be 54 b6 55 be 3d e9 23 3e 24 d6 d2 3c
       -0.33875903 -0.20870334 0.16006942 0.025736876
000130 f5 3b 58 bd fb 40 e8 bd 20 25 1c 3e fc a7 f4 bd
       -0.052791554 -0.11340519 0.15248537 -0.11946103
000140 69 cc 1a bf 86 af 7a 3e 31 77 0e 3e 15 15 bd be
       -0.60468155 0.2448102 0.13912655 -0.36930147
000150 95 41 ec be 76 1b a9 3d 89 3a 07 bf f8 19 32 3d
       -0.46143785 0.08257191 -0.5282369 0.043481797
000160 88 a2 2c 3e 3f c5 95 be d5 7b 0e bf b7 28 8d be
       0.16858876 -0.2925205 -0.556577 -0.27570125
000170 d2 74 e0 be 93 77 0f bf 40 c1 a4 be f5 93 b4 be
       -0.43839127 -0.5604183 -0.32178688 -0.35269132
000180 9f 22 0c bf b5 7c 05 bf 35 e5 50 bf a9 4a 86 be
       -0.5474033 -0.5214341 -0.8159974 -0.26228836
000190 a6 ad f5 be eb 7f 71 3e 62 01 9e bd 0e e1 99 3d
       -0.47984046 0.23583953 -0.077151075 0.07513629
0001a0 8d 80 f7 be f9 f2 0a 3e ad 46 a6 be e0 11 87 3e
       -0.48340264 0.13569249 -0.32475796 0.26380825
0001b0 cf 4c 8e be 10 86 06 3e 91 5f 9b be 4c 8d b4 be
       -0.27792975 0.13137078 -0.3034635 -0.3526405
0001c0 f2 ba ef 3d 17 f1 65 be ea 84 a3 be 65 b0 e0 be
       0.11705579 -0.2245525 -0.31937343 -0.43884578
0001d0 32 4a ca be ed 96 d0 be d4 ef 16 3e c9 00 04 bf
       -0.39509732 -0.40740147 0.14739925 -0.515637
0001e0 b4 e8 25 3e 58 af 37 bf 51 04 ab be 15 8a 16 bf
       0.1620205 -0.7175193 -0.3340173 -0.58804446
0001f0 b9 e3 bf be 24 46 8f 3d 7e f4 5c be eb 07 6c 3e
       -0.37478426 0.069958 -0.21577641 0.23049895

linear2.weight f4 [2, 128]
000000 29 9c 8a 3f be 2d e3 bf f0 b5 51 3c 83 d4 98 c0
       1.0828906 -1.7748334 0.012799725 -4.7759414
000010 6f eb 25 bd e3 98 5b bd cb 8a b4 3b 5f bf 5e 3f
       -0.04050773 -0.0536126 0.0055097095 0.8701076
000020 6d d7 f6 3d 98 24 0a bf 7c 1a 6c bd 4b 3b 4f 3f
       0.12052808 -0.5396209 -0.057642445 0.8094985
000030 38 f2 71 bd 0c 65 b6 bc 9b c7 95 be d7 aa 87 be
       -0.05906889 -0.02226498 -0.2925385 -0.26497528
000040 ae 45 cc bf 2e ad 29 bf 6f 36 16 3d fd e1 bc bc
       -1.5958765 -0.66279876 0.036673006 -0.023056978
000050 9f fa 3e 3f 06 5d c8 bd 41 af 3c 3c 39 35 aa c0
       0.7460117 -0.09783368 0.011516393 -5.318997
000060 4e 3c 2a bd a1 cb d5 bb e9 0f 7a bf aa ac 13 c0
       -0.041561417 -0.0065245186 -0.97680527 -2.3074136
000070 6f 7e 9f bd 57 44 5e 3f 60 0b 32 3f cc 13 62 c0
       -0.07787787 0.8682303 0.69548607 -3.5324583
000080 22 1e 7c 3f 81 70 85 be 8b 10 46 be e0 51 b1 bf
       0.9848348 -0.26062396 -0.19342248 -1.3853111
000090 59 a2 65 3c 70 f7 90 3d b4 79 a9 bc 3c 0f 9d 3c
       0.0140157575 0.07078445 -0.020687915 0.019172303
0000a0 3f 21 3f bf 04 23 82 bb c4 aa 13 3d 42 5d 78 3f
       -0.74660105 -0.0039714593 0.036051527 0.970173
0000b0 73 c4 f7 be e3 27 a1 be 48 08 db 3a d7 0e ad bf
       -0.48392066 -0.31475744 0.0016710842 -1.3520154
0000c0 78 55 55 c0 b9 e9 a2 3d 01 c8 71 c0 79 58 84 3f
       -3.3333416 0.07954735 -3.7778323 1.03395
0000d0 7a e2 3b 3d c9 ae 83 bd ea ad a5 c0 78 96 77 3f
       0.04587028 -0.06429822 -5.1774797 0.9671397
0000e0 a2 91 28 bf c8 a3 ca bf f9 68 83 bf ea 56 8a bf
       -0.6584722 -1.5831232 -1.026641 -1.0807774
0000f0 ae e0 b2 bb 24 e9 b8 bf 77 92 c4 bf 37 c2 1f 3e
       -0.005458913 -1.4446149 -1.5357198 0.15601431
000100 e6 4b 7f bf 1a dd 08 3e d5 4e 90 c0 65 ce 9f 3c
       -0.99725187 0.13365594 -4.509623 0.019507596
000110 52 b2 75 c0 ce 97 49 bd 65 c6 bf 3d b8 5f a8 be
       -3.8390088 -0.049217038 0.09364013 -0.32885528
000120 85 ab d1 bd 22 21 02 bf bc ee 7b 3f 4b 5d cc bd
       -0.10237793 -0.50831807 0.98411155 -0.09978732
000130 79 be 22 3f 52 94 0d 3f cc 9b 5e c0 d3 09 43 3f
       0.6357189 0.55304444 -3.478259 0.76186866
000140 5e 5c fb bf d5 f7 01 3f 68 39 96 c0 72 a7 af bc
       -1.9637563 0.50768787 -4.6945076 -0.021442149
000150 e9 03 0a be e5 e5 49 3f 50 3f 11 c0 8f 0f 20 3f
       -0.13478054 0.78866416 -2.2694893 0.6252374
000160 ab 6b 94 c0 e3 51 97 be 25 67 eb 3d 03 2b 5a be
       -4.638143 -0.29554662 0.11494283 -0.2130547
000170 1a c4 ab 3d ce 26 c7 bc 78 f4 80 bd 03 60 c3 3c
       0.08387013 -0.024310496 -0.06296629 0.023849493
000180 94 90 77 bd 2b 4c 30 bd dd 0c 14 c0 e4 bb 8a bc
       -0.060440615 -0.04304139 -2.313285 -0.016935296
000190 de 8b 34 bd 01 53 66 3f f5 1e 32 3b dd d9 0d 3f
       -0.0440787 0.89970404 0.0027179096 0.5541056
0001a0 c0 30 94 bd 12 a5 88 c0 69 7a d7 bd e0 57 9b 3f
       -0.07235861 -4.27015 -0.10521395 1.2136192
0001b0 81 49 80 be 93 35 4a c0 2a 5d d7 3d 93 df 81 3e
       -0.2505608 -3.15952 0.105158165 0.25365886
0001c0 1f d9 bb bf dc d3 48 3d 17 73 85 3d 82 2e ad 3d
       -1.4675635 0.04903017 0.06516092 0.08456136
0001d0 7d bc 1e bf 43 d3 be 3c 8f b3 83 3f 16 a5 ef bf
       -0.6200636 0.023294097 1.0289172 -1.8722255
0001e0 34 0f 41 c0 22 ec 09 c0 5c 3b 82 be 81 ed 4e bd
       -3.016553 -2.1550374 -0.25435913 -0.05051947
0001f0 cb 05 1a 3d f9 54 1e 3e 27 3c 36 bf c9 ba 13 3f
       0.03760318 0.15462102 -0.71185535 0.57706887
000200 5b ec 86 bf 6b ab e4 3f ad c2 51 3c 38 5e 95 40
       -1.054088 1.7864813 0.012802762 4.6677513
000210 c4 c6 dd bd 23 4e e2 3c ba bc be bd 21 82 51 bf
       -0.10828927 0.02762515 -0.093133405 -0.81839186
000220 95 cb 8b bd 2f b9 06 3f 78 ca 59 bd 86 dc 44 bf
       -0.068259396 0.5262632 -0.053171605 -0.7689899
000230 f4 09 02 bd fb 3b 26 3e 74 79 86 3e 7a da 26 3e
       -0.031747773 0.16233818 0.26264536 0.1629428
000240 73 e8 ca 3f 7b 5e 33 3f d1 96 67 bd 45 c2 2d 3c
       1.5852188 0.7006604 -0.056540314 0.0106053995
000250 3a fc 28 bf bd 98 d0 3b 12 84 0c bc 6a 41 ac 40
       -0.6600987 0.006365864 -0.00857641 5.382985
000260 74 73 81 3d eb 6c 1a bd 28 3c 80 3f 19 ad 15 40
       0.06320849 -0.03770153 1.0018358 2.33869
000270 e6 99 03 3c 3e 4a 68 bf 57 31 37 bf 92 e0 63 40
       0.008032298 -0.90738285 -0.7155966 3.5605817
000280 e5 e8 87 bf 51 5f 77 3e 4e db 01 3e 57 2d c4 3f
       -1.0617949 0.24157454 0.12681314 1.5326337
000290 64 d1 84 bb 7e 7b 89 bd 8f 2c 8b 3d 8c 6e a9 bc
       -0.0040532816 -0.067130074 0.06795608 -0.020682596
0002a0 de 7e 5e 3f 44 e0 03 3d 77 08 89 39 65 34 81 bf
       0.86912334 0.0321963 0.00026136983 -1.0094115
0002b0 6a 6e d6 3e 6b 1a 40 3e 82 19 8d 3d 9b 0f ad 3f
       0.41881114 0.18760078 0.06889631 1.3520387
0002c0 a4 6d 5e 40 3b 47 0b bd 85 b3 77 40 53 c7 71 bf
       3.475442 -0.034003478 3.870332 -0.9444477
0002d0 24 7a 54 bb 5c b1 c3 bd 2b 7d a5 40 1c 77 5f bf
       -0.0032421434 -0.09555313 5.1715293 -0.8729112
0002e0 bb e1 2e 3f 43 63 ca 3f f2 fb 81 3f d4 81 95 3f
       0.6831319 1.5811542 1.0155013 1.1680245
0002f0 53 23 1e bd 65 f5 b6 3f f6 f4 bb 3f 56 0f 32 be
       -0.038607907 1.4293638 1.4684131 -0.17388663
000300 5b 00 82 3f 63 bf 19 be 89 fe 93 40 e7 54 77 3d
       1.0156358 -0.15014414 4.624821 0.060383704
000310 39 51 7d 40 90 05 bd 3d 66 80 70 bb d4 db c2 3e
       3.9580824 0.092295766 -0.0036697625 0.3805834
000320 bc 50 ad 3d 76 69 99 3e 68 69 71 bf d8 5f c6 3d
       0.084626645 0.29963273 -0.9430146 0.096862495
000330 f5 eb 2c bf a4 5a 31 bf 80 a1 5e 40 9f ba 31 bf
       -0.6754754 -0.6927893 3.4786072 -0.69425386
000340 93 4d 02 40 00 82 f5 be b7 34 94 40 97 07 78 bd
       2.0359848 -0.47950745 4.631435 -0.060554113
000350 c2 24 8c 3c f4 c5 3e bf 29 0e 0d 40 76 e9 41 bf
       0.017107371 -0.745208 2.2039893 -0.7574686
000360 30 10 93 40 78 de 2b 3e dd 57 80 bd da 1c c5 3d
       4.595726 0.16784084 -0.062667586 0.096246436
000370 27 f9 cf bd cc 0a 1e 3e 48 21 88 bd 70 f2 77 3c
       -0.10154944 0.15433806 -0.06646973 0.015133485
000380 57 75 c3 bd 34 15 8f bd cc 47 11 40 3b c2 96 bc
       -0.09543865 -0.06986466 2.2700071 -0.018403163
000390 fe 06 14 3d 9f 23 63 bf c8 5f ef 3c b8 25 d0 be
       0.03613948 -0.8872623 0.029220477 -0.40653777
0003a0 7c cf b0 3a b6 1b 86 40 9c db 93 3d 59 a5 9a bf
       0.001348957 4.1908827 0.072196215 -1.208171
0003b0 24 13 3a 3e cb 3d 47 40 fa 20 05 3d 68 3d 85 be
       0.18171364 3.1131465 0.032502152 -0.26023412
0003c0 ca be ca 3f 2a b5 b0 bd fd 18 9d 3c dc a3 09 bc
       1.5839474 -0.08628304 0.019176954 -0.0084008835
0003d0 8e 89 27 3f 83 77 86 3d 29 c6 8d bf 26 f0 f7 3f
       0.65444267 0.06565764 -1.1076099 1.9370162
0003e0 c5 89 47 40 e1 c1 04 40 30 2c 42 3e 91 6f f7 3d
       3.1177838 2.0743334 0.18962169 0.120818265
0003f0 45 9f 07 bc 25 7e a6 bd 15 a5 3b 3f 0d 17 07 bf
       -0.008277719 -0.08129529 0.7329877 -0.5276955

linear2.bias f4 [2]
000000 d9 12 27 3e 79 b1 5e be
       0.16315784 -0.21747388
