DQN/CartPole_lowstate.pt (torch_old, 538765 bytes, 6 tensors)

linear1.weight f4 [512, 4]
000000 69 ab 3b be ae 26 8c 3e 44 1b 67 3d 66 d0 b3 3d
       -0.18327107 0.2737326 0.056422487 0.08779983
000010 b2 31 b5 3e 14 ef 92 be bd ec f5 be 1b 40 61 3e
       0.35389477 -0.28698027 -0.4803218 0.2199711
000020 2a e8 d2 be 4c 22 ef be c4 0f 86 be 90 ee 32 3e
       -0.41192752 -0.46705854 -0.26183903 0.17473817
000030 a5 0c 72 3d fe eb 5e be 63 29 d7 3d 08 fa d8 be
       0.05909409 -0.21769711 0.10505941 -0.4237826
000040 2c 18 52 be 87 53 c3 bd 91 91 13 3e 60 25 eb 3c
       -0.20517033 -0.09537416 0.14410998 0.028704345
000050 83 87 5a bd 57 90 b9 be 3c f5 a7 be 12 f2 95 be
       -0.05335189 -0.36242935 -0.32804286 -0.29286247
000060 9d 56 5d be dd af e4 3e 09 fb 1c bf 34 df 07 be
       -0.21615072 0.44665423 -0.6132055 -0.13268739
000070 9a f4 d8 bc ac 32 b8 be ec 79 9d 3e 20 0e 04 3f
       -0.026483823 -0.3597616 0.30757082 0.51584053
000080 b6 1d f6 3d 44 c8 e5 3d fb 89 30 bf 5f bc 4d be
       0.12017386 0.11219838 -0.6896054 -0.20091389
000090 dc 56 1e 3e 8e 6b d3 3d bf 61 10 bf 92 d5 08 bf
       0.15462822 0.10323249 -0.5639915 -0.5345088
0000a0 da fb af ba 15 93 65 be 9c 17 91 3d 22 c2 88 3e
       -0.0013426498 -0.22419389 0.07084581 0.26710612
0000b0 17 b4 8d 3e 5c c6 a6 3e d2 d5 22 3e b0 a3 13 3e
       0.2767646 0.3257321 0.15901878 0.1441791
0000c0 3a 82 05 be f6 dc 5f 3e ef 79 8c be 52 b2 c9 3e
       -0.13037959 0.21861634 -0.27436778 0.3939386
0000d0 8d 38 20 3d 3e 9d e1 3e b9 f4 fa be af 40 47 3e
       0.03911643 0.4406528 -0.49014834 0.19458269
0000e0 a0 69 26 be ee 49 df be 08 da 1e bf a6 60 05 bf
       -0.1625123 -0.4361109 -0.6205144 -0.521006
0000f0 fa b1 40 3e 28 c0 80 3e af cb c2 be e9 57 c6 3c
       0.18817893 0.25146604 -0.38046023 0.02421184
000100 eb db dd be 2e 2d b0 be f8 e9 be be 50 e2 9d be
       -0.43331847 -0.3440947 -0.3728788 -0.30836725
000110 cb 71 4d be 13 8c 29 be 8c 9b fb be b8 75 a4 be
       -0.2006294 -0.1655734 -0.4914211 -0.32121062
000120 d6 5e c0 3e ca 94 9d be d0 21 19 be 8f 89 b0 bd
       0.37572354 -0.3077758 -0.14954305 -0.08619987
000130 80 2f 59 be 90 96 02 bf c4 79 ac be 6e 7a 9a be
       -0.21209526 -0.5101099 -0.3368665 -0.3017153
000140 85 3b 9e 3e 42 09 e1 bd 12 dd 1f 3f 5a 66 d6 3e
       0.30904785 -0.10988094 0.624467 0.41874963
000150 e6 8b a1 3e 18 74 f4 bc 59 27 dc bd fd 41 e0 bd
       0.31552047 -0.029840514 -0.107496925 -0.10950086
000160 14 11 0e bd ab 47 7a 3d 3f 5f fc bd 12 ba 9b be
       -0.034684256 0.061103504 -0.12322854 -0.30415398
000170 b7 89 85 bd c1 8e 1b 3e f0 c4 f9 be 42 2c ed 3d
       -0.06520408 0.15191175 -0.48783064 0.11580707
000180 b8 a5 b0 3e b8 0d e5 bc 8b 97 94 3e e4 83 99 bd
       0.34501433 -0.027960643 0.29021868 -0.07495859
000190 45 0c d9 3e 84 cb e0 be cf dd d5 bb 80 ff 9a bd
       0.42392173 -0.4390527 -0.006526686 -0.07568264
0001a0 0c 07 d0 3e fa 3a b1 3d ee 3b 16 3f 44 c5 84 3e
       0.40630376 0.08653827 0.58685195 0.25931752
0001b0 ac ac 08 3e 2b aa f3 bd 41 7e e2 3e 01 14 9d 3d
       0.13347119 -0.11897691 0.4423695 0.07669831
0001c0 04 b5 84 3e 07 23 a7 be ce ac 85 3e 8a 31 0c 3b
       0.25919354 -0.3264391 0.26108402 0.0021391832
0001d0 f1 a2 fd be ee 73 ff be d8 1d a4 3e eb cc ef 3e
       -0.49538377 -0.49893135 0.3205402 0.46836028
0001e0 39 51 06 3e fb 28 fa 3e e9 81 e1 3e 4f 44 72 3e
       0.13116921 0.4885939 0.44044426 0.2365887
0001f0 f2 99 fb be 16 bb d3 3e e4 c8 9a be d0 f5 35 3e
       -0.49140888 0.41353673 -0.30231392 0.17769551
000200 51 44 e2 3e bb a1 b9 be ac 36 d0 3d a7 59 cd be
       0.44192746 -0.36256203 0.10166678 -0.40107462
000210 0d 7f c1 3e 84 7b cd bd 8a 12 40 3e 91 90 df be
       0.37792245 -0.10033324 0.18757072 -0.43664983
000220 37 59 b6 3e 7f 08 13 3e d3 2c 0f be a1 9b ea 3e
       0.3561494 0.1435871 -0.13981943 0.4582186
000230 0f 09 e9 3e d0 35 08 bd 66 8f e1 3c 77 08 0a 3f
       0.45514724 -0.033254445 0.027534198 0.53919166
000240 7f 04 f8 3e 9a 1b 92 3e d5 8a ff bb d6 d2 95 3e
       0.4844093 0.28536683 -0.0077985325 0.29262418
000250 89 57 d8 be 97 38 47 be 15 25 da 3e 80 78 df be
       -0.42254284 -0.19455181 0.42606416 -0.43646622
000260 46 0c 73 3c 54 63 0f 3d 15 21 31 be 85 12 bf 3e
       0.014834469 0.035006836 -0.17297776 0.37318817
000270 bd f1 af bd 3c aa d8 3e b0 52 e4 3d 6f 2f c4 3e
       -0.0859103 0.4231738 0.11148584 0.3831744
000280 af 14 fc be b9 5d 2a bc fc 2d 23 3e b2 72 96 be
       -0.4923453 -0.010398322 0.1593551 -0.2938438
000290 d5 a8 0f 3c e5 3f ba 3d d2 47 cb 3e 76 8b e8 3e
       0.00876828 0.09094218 0.39703232 0.454189
0002a0 8d 65 8a be 0a ca 8d 3e ed 49 2c 3e a3 a2 42 3c
       -0.27030602 0.27693206 0.16825075 0.011879596
0002b0 2b 0e 6c 3e 74 7c ed 3e f6 c9 e5 3e 28 aa ec 3e
       0.2305228 0.46384013 0.44880646 0.4622357
0002c0 bc 87 fb be 5c 4c f1 be 65 ff ab 3c 67 8a fc 3c
       -0.49126995 -0.4712857 0.020995805 0.030827714
0002d0 e6 12 67 3c 72 27 15 3e 4e d4 57 3e 6d 0d a3 be
       0.014103627 0.14565828 0.21077082 -0.3184618
0002e0 34 09 fe 3e 9e bc 0a 3f 2e e7 35 3c 36 35 bd 3e
       0.49616396 0.54194057 0.011102481 0.3695466
0002f0 11 2b b1 3e 69 a7 e7 3e 44 9c 07 bf e4 f3 36 be
       0.3460317 0.4524491 -0.5297282 -0.17866474
000300 ab 66 48 be b8 5a 5f 3e ec 0d a7 3e 68 39 96 3e
       -0.19570415 0.2181195 0.3262781 0.29340672
000310 90 28 07 3e 75 ca bc 3e 5d 67 8a bd db d2 d3 3c
       0.13199067 0.36873212 -0.06757996 0.02585738
000320 00 d9 56 3d 31 86 af 3e ce 03 d5 3e c6 33 8f bc
       0.05245304 0.34282067 0.41604465 -0.017480742
000330 68 a2 ea be 66 b9 40 bd 65 a0 a6 3e 66 4a af bd
       -0.4582703 -0.04705181 0.32544246 -0.08559112
000340 21 34 87 bd 4c 6b 08 be 71 0c af be 80 d7 04 be
       -0.0660174 -0.1332218 -0.3418918 -0.12972832
000350 22 71 c5 be fb 1d 3a 3e c5 dc f1 bd 66 d9 a5 be
       -0.38562876 0.18175499 -0.118096866 -0.32392424
000360 8f 1e ef 3e 7f c6 d3 be 08 60 28 3e b4 f8 af be
       0.46703002 -0.41362378 0.16442883 -0.34369433
000370 72 9e 08 3f 57 a6 f0 3e 84 40 ca be 10 cd cb be
       0.5336677 0.47001907 -0.39502347 -0.39804888
000380 f2 29 63 be 40 b4 98 bd 0f 0e 95 be 1a a0 d8 3e
       -0.2218397 -0.07456255 -0.29112288 0.42309648
000390 5a 05 89 be 1b fe 90 3d 70 18 f4 3e 45 a4 15 be
       -0.26761895 0.07079717 0.47674894 -0.14613445
0003a0 f5 34 a9 3e 6f 89 ef bc c0 a9 88 be 27 70 17 be
       0.33048216 -0.029240338 -0.2669201 -0.14788876
0003b0 14 fb f3 3e 3d 67 ea be b0 8c 31 be 76 2f 12 bd
       0.47652495 -0.4578189 -0.17338824 -0.035689794
0003c0 53 37 ed be 43 f9 60 be ec f8 c9 3e ff d6 36 3e
       -0.46331272 -0.21970086 0.39447725 0.17855452
0003d0 72 c4 00 3e ec 94 19 3e e2 09 92 be b9 e3 c9 be
       0.12574938 0.14998215 -0.28523165 -0.3943155
0003e0 dc 0d 92 bb 0f b1 56 bc 7f 44 76 be 8c 3a 77 be
       -0.0044572186 -0.0131037375 -0.24049567 -0.24143428
0003f0 61 61 45 3e 95 79 98 3d 09 f9 70 3e a5 9e e9 3e
       0.19275428 0.07445065 0.235325 0.4562885

linear1.bias f4 [512]
000000 8f 33 54 3e cb 39 03 3f a7 09 94 be c5 c3 fe 3e
       0.20722793 0.5126006 -0.28913614 0.49758735
000010 b3 f2 f0 be dd 70 b2 3e 02 25 ec bd fc a8 4a bd
       -0.47060165 0.34851733 -0.11530496 -0.049477562
000020 95 bb 73 bd b8 5b 98 be 80 04 46 be 50 b5 50 3e
       -0.059505064 -0.29757476 -0.19337654 0.20381665
000030 9c d9 f5 3e 76 22 d9 3e bd 1a 47 bd 11 0f af 3e
       0.48017585 0.42409104 -0.048609484 0.34191182
000040 e2 03 b1 3e f7 51 89 3e a8 b5 c4 be 59 96 6a 3d
       0.34573275 0.26820347 -0.38419843 0.05727229
000050 0e 4f e7 3b 1f 4b 60 be f2 4e 59 be de 78 d2 bd
       0.0070589846 -0.21903656 -0.21221521 -0.1027696
000060 ef d2 60 be fd 95 6c 3e e9 64 4c 3d 13 b2 dc 3e
       -0.21955465 0.23104091 0.049900923 0.4310461
000070 ab 88 9a be 5a 91 0e 3f 05 ea 97 3e b4 7e ce be
       -0.30182394 0.5569054 0.2967073 -0.40331042
000080 52 7b 0f 3f 5d 69 a2 bc c0 35 bd 3d b0 cb a8 3d
       0.56047547 -0.019825632 0.092387676 0.08241975
000090 b9 7b 82 be 00 63 d2 3e c5 cc 75 3e 10 12 ac 3b
       -0.25485018 0.41091156 0.24003895 0.0052511767
0000a0 1c 5a e6 3e 63 1e 50 be b7 56 bf 3e 68 49 36 be
       0.44990623 -0.20324092 0.37370846 -0.1780144
0000b0 17 6a 35 be fb 36 d1 be 78 fc 84 3c 51 ae 1f be
       -0.17716251 -0.4086226 0.016233668 -0.1559384
0000c0 39 6b e9 bc f6 19 ac be f0 c8 ab be d7 a1 d6 3e
       -0.02849351 -0.33613557 -0.3355174 0.4192035
0000d0 de 53 0d 3f 2f 3c 16 3f cc f8 e2 bc 7d 8b e5 be
       0.55206096 0.5868558 -0.027706526 -0.44832984
0000e0 d2 05 f0 be 79 37 00 3f 9a d8 ba 3e eb 62 95 3e
       -0.4687944 0.50084645 0.3649338 0.2917703
0000f0 8f 33 8c be f7 6e b6 bd 49 f7 22 3d d9 40 cd 3e
       -0.27383086 -0.089078836 0.03978661 0.40088537
000100 1c 19 6c 3e 8e 37 ce be 05 9e 6c be 10 0c d1 3d
       0.23056453 -0.4027676 -0.23107155 0.10207379
000110 be d1 f1 bc 25 2e a3 3d 36 cb b6 be 2f c6 52 3e
       -0.029518958 0.07967786 -0.35701913 0.20583414
000120 1b fb aa be 1e 93 be 3e 9e e1 51 3e e3 01 ec 3d
       -0.33394703 0.37221617 0.20496222 0.11523797
000130 0f 50 46 3e 97 2d 59 3e 1b 4f 9a 3e 05 13 de 3e
       0.19366477 0.21208797 0.30138478 0.43373886
000140 a1 97 72 bc 61 06 cc be a7 17 a1 3e f6 d2 aa 3e
       -0.014806659 -0.39848617 0.31463358 0.33364075
000150 e3 83 df 3e b1 2b 15 3e 25 2a 02 3f ed 02 43 bd
       0.4365531 0.14567448 0.5084556 -0.047610212
000160 57 75 f7 be 9f c2 ae 3d a8 98 ff 3e dd c2 20 3d
       -0.4833171 0.08533215 0.49921155 0.039248336
000170 5b 1f 39 be 88 c7 3d be 5c f1 ca 3e 17 9f 04 3e
       -0.18078367 -0.18533146 0.39637268 0.12951313
000180 c1 68 b2 3e 77 5f ce 3e ee 3f 04 be 0a f3 4d 3e
       0.34845546 0.4030721 -0.12915012 0.20112243
000190 d6 b5 05 be c5 15 c9 3e 31 ce 14 3f 7f f7 47 bd
       -0.13057646 0.3927442 0.58127123 -0.048820015
0001a0 ef db 4a bd 80 59 57 3e 8b a1 79 3e be 1c 54 3e
       -0.04952615 0.21030235 0.2437803 0.2071409
0001b0 e9 8f d1 3e 1e 4b 81 3e 6e 8f 82 3e 42 53 57 bd
       0.40930107 0.25252622 0.25500053 -0.052569635
0001c0 09 b4 d2 3e 9b 7a db 3e 72 f5 52 be ea ee 93 3e
       0.4115298 0.42866978 -0.20601442 0.28893214
0001d0 9d b1 cf 3e 71 de 44 3e 07 fc 56 3e fe b7 99 3e
       0.40565196 0.1922548 0.20994578 0.30023187
0001e0 60 49 03 be d6 19 f3 be c5 fe 0d 3f d2 4c 55 be
       -0.12820959 -0.4748065 0.5546687 -0.20830086
0001f0 f7 3c 0e 3e 12 a7 0d 3f a9 12 b5 bd 57 43 83 3e
       0.13890444 0.55333054 -0.0884145 0.25637314
000200 21 ee d5 bb 67 7c f4 3e 43 9e f4 3e 2b 92 b9 bd
       -0.0065286313 0.4775116 0.47776994 -0.090610825
000210 ef ca bb be f8 21 19 be 93 5d d8 3e 76 c6 5f 3e
       -0.36678264 -0.14954364 0.4225889 0.2185305
000220 07 88 c4 bd 21 39 f4 be c7 b7 b2 3e 96 21 6d be
       -0.09596258 -0.47699836 0.34905836 -0.23157343
000230 33 06 c3 be 4d 98 f3 bd 7f ff 4c bd 4e ea 44 bd
       -0.38090667 -0.118942834 -0.050048348 -0.048075013
000240 01 ea 63 3d fb ab 1a be 50 83 60 be d3 74 8e be
       0.055643085 -0.15104668 -0.21925092 -0.27823505
000250 00 bf 11 3f 21 80 f7 3e 68 f6 e5 3e 81 1b 5e be
       0.5693207 0.48339942 0.44914556 -0.2169018
000260 a4 95 d9 be 73 42 0a 3f ba 20 04 be 91 a5 b2 be
       -0.4249698 0.54007643 -0.12903109 -0.34891942
000270 68 15 90 3a 65 b1 40 3e 43 4f fa be 3f aa a6 3e
       0.0010992708 0.1881767 -0.48888597 0.32551762
000280 0e d4 c2 3e 5a 77 88 be a0 9a 9f 3e 4a 03 ae be
       0.3805241 -0.26653558 0.31172657 -0.33986884
000290 a1 b4 dc bc 59 3f cd bd d7 2b 9f be 90 d8 db 3e
       -0.0269416 -0.10021848 -0.31088135 0.42938662
0002a0 93 7b ac 3e 6c f0 98 be 49 45 31 be b1 cd 35 be
       0.3368803 -0.29870927 -0.17311586 -0.17754246
0002b0 aa 74 ef be ec 1e f0 3e ec 0b c6 3e 6e 2d 10 3f
       -0.46768695 0.46898592 0.3868097 0.5631932
0002c0 bb cb a1 be d6 d5 b1 bd aa 97 99 3e 01 a6 61 be
       -0.31600747 -0.08683364 0.29998523 -0.22035982
0002d0 2c 33 a4 3e df 35 82 3e 4f ba 49 be 53 7f 58 be
       0.3207029 0.25431725 -0.19699977 -0.2114232
0002e0 74 f8 44 3d 03 0f c9 3e 71 73 0b 3f ea 06 06 bd
       0.048088506 0.39269266 0.54473025 -0.032721438
0002f0 41 59 a1 3e 10 42 1f 3e ab ce 0a bd d8 36 29 3e
       0.31513408 0.15552545 -0.0338885 0.16524827
000300 3e d2 c8 be 4f 94 dc 3e ac a4 16 3e 37 ac 5b be
       -0.39222902 0.430819 0.14711255 -0.21452413
000310 c4 66 b2 3c 80 98 99 3e a2 c9 c9 3e 37 f6 43 be
       0.021777518 0.2999916 0.39411646 -0.19136892
000320 4f f2 5c be 4d 11 df be 7a fb f6 bc 80 c7 aa be
       -0.21576808 -0.43567887 -0.03014921 -0.3335533
000330 c7 ac 4c bd 92 6c 2d bc 0e 5b ee bd cf d7 9c 3e
       -0.04996946 -0.010584967 -0.11638461 0.306334
000340 68 73 36 be a0 a7 d1 be a5 4c cf bc db 5b 0d be
       -0.17817461 -0.409482 -0.025305102 -0.13804571
000350 97 a6 ef 3b ec fd c5 3e 13 39 04 3f 5a 6c d2 be
       0.00731356 0.3867029 0.5164959 -0.4109829
000360 64 45 c5 3e 88 39 aa 3e ca 7a 3e 3e fa d5 3f be
       0.38529503 0.33247018 0.18601528 -0.1873397
000370 e2 be 89 3e 58 78 16 be 9a 36 a2 3e 90 b3 d8 be
       0.26903445 -0.14694345 0.31682283 -0.42324495
000380 26 ef 06 3f de 57 ea 3e c2 3d 0a 3f d4 00 8b 3e
       0.5270866 0.45770162 0.54000485 0.2714907
000390 57 0e 05 be 19 8d 7d be 9f e5 b5 3e dc 32 0a 3c
       -0.12993751 -0.24760856 0.3552675 0.008434977
0003a0 9b 0f eb 3e 54 67 44 bd 0f 17 1a be 71 14 89 bd
       0.45910344 -0.047950104 -0.15047859 -0.06693352
0003b0 6f 3a 51 bd 09 03 84 3e e6 69 c0 be a7 fb cd 3e
       -0.051081117 0.25783566 -0.37580794 0.40231058
0003c0 bc b9 cd 3e 81 26 40 bd e0 b0 e4 be 3a 79 8d 3e
       0.40180767 -0.04691172 -0.44666195 0.2763155
0003d0 c2 3c 16 be e8 30 df be f1 4d 35 3e 80 b3 3a be
       -0.14671615 -0.43592 0.17705514 -0.18232536
0003e0 53 58 ab 3c 67 b7 4e be a6 3c cc be 0a 61 83 be
       0.02091614 -0.2018715 -0.3989002 -0.25659972
0003f0 59 c8 2b be e7 81 8b be 2c 47 16 3f ef 01 a7 3e
       -0.16775645 -0.27247545 0.5870235 0.32618663

linear2.weight f4 [256, 512]
000000 1d 6e 0e bd 60 43 23 bd 06 0a 89 bb 65 92 ee 3a
       -0.03477298 -0.039859176 -0.004182103 0.0018201588
000010 e0 7d e7 bb 6b a3 c8 3b b0 97 d7 3c dc 56 c2 3c
       -0.007064566 0.0061229966 0.026317447 0.023723058
000020 53 18 30 bc 00 2b dc 39 19 f6 f4 3c 7a 8e 18 3d
       -0.010747987 0.00041993707 0.029902505 0.03724525
000030 ec 52 82 bc 06 5e 3d bc 3b 4b f0 3b cc a5 3c bd
       -0.01590868 -0.011558061 0.007333187 -0.046056554
000040 68 83 2e bd a5 7e f5 bb a8 32 45 bc a7 04 ec bb
       -0.042605788 -0.007491904 -0.012036003 -0.007202703
000050 26 4c 86 3c 7a 62 f7 3c 95 8b 22 bd 58 6f 06 bd
       0.016393732 0.030198324 -0.039683897 -0.03282103
000060 59 fd 16 3d f1 71 1a 3c 2e 6b e0 bc 7e b2 0a 3c
       0.036862705 0.00942658 -0.027394857 0.008465407
000070 4b ad 22 3d 4b 91 09 3c 89 01 38 3c 1c d6 85 3c
       0.039716046 0.008396457 0.011230835 0.016337447
000080 82 a2 e9 bc 27 a6 0e 3d 9d da dc 3c 0c 38 ba 3c
       -0.028519873 0.034826424 0.026959712 0.022731803
000090 77 9a 01 bd 02 03 31 bd b2 5d c9 3c 4b 8f b4 bc
       -0.03164145 -0.04321576 0.02458081 -0.022040984
0000a0 13 eb d9 3c 08 60 3a bc 8a 31 9b bc 80 36 ad 39
       0.02660135 -0.011375435 -0.01894452 0.00033037737
0000b0 b3 00 06 bd c9 59 22 bd e4 00 1f bc b0 70 09 3c
       -0.03271551 -0.039636407 -0.009704802 0.008388683
0000c0 11 57 9f 3c e0 05 28 bc ab 28 0f 3d 40 6d 15 3d
       0.019450696 -0.010255307 0.034950893 0.036481142
0000d0 30 c0 b9 bc 74 e8 08 bd 56 8c c3 3c 6e e9 83 bc
       -0.02267465 -0.03342481 0.023870628 -0.016102519
0000e0 f4 c1 c0 bc 9d a4 1e bd fd 02 0f bd 80 0d 67 3b
       -0.023529984 -0.038731206 -0.03491496 0.003525585
0000f0 6e 44 a4 3c ab 17 1a bd 3f 9e be bc 2f 76 76 bc
       0.020052161 -0.037620228 -0.023268817 -0.015042826
000100 b3 ac 70 3c a2 32 8b 3c bd 50 0d bd c2 97 27 bd
       0.014689612 0.016991917 -0.034500826 -0.040916212
000110 00 24 f0 b8 3b a0 be 3b a8 33 61 3c 8a db 50 3c
       -0.00011450797 0.005817441 0.013745226 0.012747655
000120 99 63 34 bd b1 eb 65 bc 0f 85 cf bc ec 2d 69 bc
       -0.044040296 -0.014033244 -0.025332002 -0.01423214
000130 6e 14 0b bd 40 81 77 bb 92 69 cb bc 27 fe fa 3c
       -0.03395503 -0.0037766248 -0.024830613 0.030638767
000140 3b 60 87 3c a1 e6 21 3b be 91 12 3c 1a be ac bb
       0.016525378 0.0024704116 0.00894588 -0.0052716853
000150 90 74 18 bc 1f 84 d4 3c b5 b0 cd bc 7a 40 6c bc
       -0.009305134 0.025941906 -0.025108675 -0.014419669
000160 d4 a9 df bc 71 db 05 bc 7b 18 18 3d e9 0b 6d bc
       -0.02730266 -0.008169995 0.03713272 -0.014468172
000170 3e 1f c2 bc da 7d f4 bb bb 25 af 3c f6 d3 02 bd
       -0.023696538 -0.0074612917 0.021380296 -0.031940423
000180 25 2c 5e bb 47 7e db 3c 4a 01 9b 3c ac 8e 92 3c
       -0.0033900824 0.026793612 0.018921513 0.017890297
000190 55 ce c1 3b f6 dd 4f bc ba 95 f2 bb b3 1b 15 bd
       0.0059144893 -0.012687197 -0.0074031027 -0.03640337
0001a0 1d df 3b bd a1 92 ac bc 14 d1 58 3c 75 db 1f 3c
       -0.045867074 -0.021066012 0.013233442 0.0097569125
0001b0 72 c7 72 bc 29 fb 77 3c 41 c8 0c b8 98 86 93 3c
       -0.014818059 0.015135565 -3.3565102e-05 0.018008515
0001c0 57 7b 03 bd c7 c6 23 bd 7b 33 05 3d 2e 74 e9 3c
       -0.032100048 -0.03998449 0.0325198 0.028497782
0001d0 c2 fb ea 3c a8 5e ae 3c 74 20 89 3c 86 4c 04 3d
       0.0286845 0.02128537 0.016739108 0.03229954
0001e0 df ea 09 bd a0 0f 19 3b f6 6e cd 3c 9b a9 10 3d
       -0.033671256 0.002335526 0.025077324 0.035318
0001f0 e2 45 1d bd e7 ab a6 3c 52 eb dc 3c 0a 4c fa bb
       -0.038396724 0.020345641 0.026967678 -0.007638459
000200 14 0d ba bc dc 43 ec bc 02 ca 44 bc 30 a7 88 3b
       -0.022711314 -0.028840952 -0.012011053 0.004170321
000210 e3 3d 17 3d 80 70 3d bc c2 b8 1d 3c 5d ac e0 bc
       0.036924254 -0.011562467 0.009626569 -0.02742594
000220 95 8a f7 bc c1 97 15 bd 05 be f4 3b a0 c1 ba ba
       -0.030217448 -0.036521677 0.007468941 -0.0014248379
000230 ca 8f 01 bd b0 09 2a 3b 04 4f c7 3c ee d3 00 bd
       -0.03163127 0.0025945716 0.02432967 -0.031452112
000240 c7 22 7f bc a1 04 c4 3c 2f 3f 32 3d e8 48 2f 3c
       -0.015572256 0.023927988 0.043517288 0.010698535
000250 20 b0 8a ba c4 65 ab bb 0d d4 12 3d fb 53 1d 3d
       -0.0010581054 -0.0052306373 0.03584676 0.03841017
000260 b0 22 e0 bc ae 5d 74 3c 7e 9d b5 3c dc b6 22 bd
       -0.02736029 0.014914913 0.022169825 -0.03972517
000270 81 7b 36 bd fb 1c 07 3d bd b8 1f 3d 37 1a 84 3a
       -0.044551376 0.032986622 0.03899454 0.0010078613
000280 e0 5f 96 3c d0 aa ae bb 8a 0a db 3c 9c 1f 43 bc
       0.018356264 -0.005330421 0.026738424 -0.011909392
000290 6d 81 28 3d 23 cd 26 3d a0 12 13 3c b5 77 50 bc
       0.041139055 0.040722977 0.0089766085 -0.012723853
0002a0 6c aa 89 bc d0 25 dc 3b 8f a5 1f 3d 58 79 96 bc
       -0.016804896 0.006718375 0.03897625 -0.018368408
0002b0 3c 7f 9a bc 86 7e eb bc 2c b6 05 3d 0b e0 3d bb
       -0.018859498 -0.028746855 0.032644436 -0.0028972651
0002c0 f0 a5 a9 bb d1 10 9d 3a fb 80 cb 3b a4 88 65 bc
       -0.005177252 0.0011983161 0.006210444 -0.014009628
0002d0 19 96 87 39 e3 e7 cb 3c b8 62 f0 3b 31 04 33 3d
       0.00025861038 0.024890846 0.007335987 0.04370517
0002e0 0d c8 30 bd b7 97 d1 bb 9c e2 e4 bb f3 6f 8b 3c
       -0.043159533 -0.0063962596 -0.0069850218 0.017021155
0002f0 d1 91 13 ba 74 fe 13 bd 9a 1a 4c 3c 68 98 28 bc
       -0.00056293333 -0.036131337 0.012457514 -0.010290243
000300 72 89 ac 3c 80 74 23 bd b5 64 4b 3b f5 3c 0c 3d
       0.021061633 -0.039906025 0.0031035368 0.03423782
000310 23 54 09 3d 91 f2 fc bb 82 18 e1 3a 80 d3 04 3c
       0.033527505 -0.007719346 0.0017173442 0.008107066
000320 dd ce 0d 3d f6 28 ca 3c 48 49 a0 3b 65 76 19 bd
       0.03462111 0.024677735 0.0048915483 -0.037466425
000330 17 b0 81 bc f3 ca de 3b e2 43 99 3c a2 c8 24 3d
       -0.015831036 0.006799096 0.018709127 0.0402304
000340 87 a8 b0 bc 21 45 10 3d ac c2 be bb 17 f0 0e bd
       -0.021564735 0.035222176 -0.0058215465 -0.034896936
000350 c2 1f cd 3c 96 e5 71 bc b9 78 83 bc 37 a9 23 3d
       0.025039557 -0.01476421 -0.016048776 0.039956298
000360 69 49 00 3c 90 0d bf 3c 59 85 d0 bc 20 7f 95 ba
       0.007830002 0.023321897 -0.02545421 -0.0011405684
000370 e7 53 a0 bb 35 9e 0c bd 94 f7 07 bc 9c 82 44 3c
       -0.0048928144 -0.034330565 -0.008298773 0.01199403
000380 a1 2e 13 bd af a0 b0 bb 40 b3 a7 3c 15 d2 40 bc
       -0.03593314 -0.0053902487 0.020471215 -0.011768837
000390 a0 e0 8b ba 3d 93 c9 bc 33 93 70 bc 84 e7 1e bd
       -0.0010671802 -0.024606341 -0.0146835325 -0.03879501
0003a0 1f 7a bc 3c 24 35 09 bd c0 fd 9a 3b 06 0a 93 bc
       0.02300745 -0.033497944 0.0047299564 -0.017949115
0003b0 59 32 fc ba bc 97 09 bd 60 69 4c bb 06 9d 14 bc
       -0.0019241079 -0.03359197 -0.0031190738 -0.00907064
0003c0 f1 0d b2 3c 64 44 0d bd dc 43 92 bc 60 a9 25 bc
       0.021735163 -0.03448905 -0.017854623 -0.010111183
0003d0 00 4d c5 bb 88 e2 db 3b 3d 9d a7 3a f4 60 07 bd
       -0.006021142 0.0067103542 0.001278795 -0.033051446
0003e0 15 44 f8 bb c2 a0 fa bc d6 ba 9f 3c 6f 7e b4 bc
       -0.0075764754 -0.030594233 0.01949827 -0.022032944
0003f0 eb 64 de bb 77 2d 93 bc d5 b7 2a 3d 4b 9f 99 3c
       -0.0067869327 -0.017966015 0.041679222 0.018752715

linear2.bias f4 [256]
000000 36 a2 22 3c 7a 55 09 bd e6 d9 73 bc ef c8 03 bd
       0.009926369 -0.033528782 -0.014883494 -0.032174047
000010 99 7c 65 3d 21 27 76 bc 6e 98 d8 bc af c2 9e bc
       0.05602703 -0.0150239775 -0.026439872 -0.019379942
000020 42 ad a3 bc 69 09 dc bb 54 95 5a 3b 13 dc 49 3d
       -0.019980077 -0.006714989 0.0033353167 0.049282145
000030 38 e5 85 3d 94 9d 8e bc d6 a4 c6 3d b8 fc fc 3c
       0.06537861 -0.017409123 0.09699409 0.030882224
000040 49 0a 87 3d ca 00 9c 3b 39 db 60 3c ca db 92 bc
       0.065937586 0.0047608363 0.013724142 -0.01792707
000050 71 2d 32 3d bb e9 d2 3c eb 32 3b bc e0 8e 4b bd
       0.043500368 0.025746217 -0.011425714 -0.049696803
000060 82 30 36 3d 56 41 ae 3b be f4 37 3c e3 19 00 3d
       0.044479854 0.0053178472 0.011227785 0.031274687
000070 07 9a 93 bc af 55 92 3d 4f 41 cf bc 13 2a d1 3c
       -0.018017782 0.07145249 -0.025299696 0.025532758
000080 d7 f1 8e bc 81 8b 59 3d 6a ce 19 3d 59 a5 dc 3d
       -0.017449303 0.053111557 0.037550367 0.10773725
000090 2b 86 97 3d 3b 29 d7 bc c8 1e ec 3c 5f cb 58 3d
       0.073986374 -0.026264777 0.028823271 0.052928325
0000a0 7b fd 3f 3d f0 7b 2e 3d 98 95 75 3d bf 7c fe 3c
       0.046872597 0.042598665 0.059957117 0.031065343
0000b0 f1 e4 da 3d c3 14 f3 3c cb 6f 7e 3a 48 4e 5d bc
       0.10688198 0.029672986 0.00097059895 -0.013507433
0000c0 36 bc 8a bc de ed e2 bc 89 e2 61 bc 6c 36 d8 3d
       -0.01693545 -0.027701315 -0.01378692 0.10557255
0000d0 41 46 21 3d 40 d1 e1 bb 2a 9c a5 3c c3 8a 3b 39
       0.03937364 -0.0068913996 0.020216066 0.00017885402
0000e0 62 be 29 3d 61 8a a1 3d 00 98 9f 3b c4 76 ad 3d
       0.04144133 0.07887722 0.0048704147 0.08469918
0000f0 6b 89 a7 3d 7f 84 05 bc ca 54 2c bd 3f c0 b9 3c
       0.08180507 -0.008149265 -0.04207305 0.022674678
000100 f9 70 46 3d ea 03 09 3d c5 71 78 3c fe 90 f9 3c
       0.048447583 0.033451 0.0151638435 0.030464645
000110 5b e5 50 bc 11 b5 e2 3c df 46 55 3d 30 1b 01 3c
       -0.012749995 0.02767423 0.05206954 0.007880017
000120 56 b2 6a 3c d2 32 2e 3d a6 7c 79 3d fe bb 10 bd
       0.014324745 0.042528935 0.06090989 -0.035335533
000130 f6 09 0e 3d d5 24 1a 3b ea 14 dc 3c 83 4f 2c 3d
       0.03467747 0.0023520489 0.026865441 0.042068016
000140 ef 8f 39 3d 41 25 bc 3d d7 96 0f bc a3 75 06 3d
       0.04530328 0.09186793 -0.00876399 0.03282703
000150 47 a8 5a 3d c1 84 ae 3d 8e e6 03 3c 32 d4 15 3b
       0.053383138 0.085214145 0.008050574 0.0022862074
000160 58 a5 8e bc a3 1e 1a 3d c9 f2 73 3c d4 93 1f bc
       -0.017412826 0.037626874 0.014889427 -0.009739835
000170 12 75 7d 3d 07 37 90 3d 0c 16 6a bc 7a a9 a6 bc
       0.061879225 0.07041746 -0.014287483 -0.020344485
000180 10 e1 0a 3b bb ab 8c 3d e2 a4 5b 3d 14 aa 94 3d
       0.0021191277 0.068686925 0.05362404 0.07259002
000190 e1 4c 59 3d 87 38 26 3d b2 9a cc bc fd 57 45 bd
       0.053051833 0.040581252 -0.024976108 -0.048179615
0001a0 4a 5e 68 3d 57 95 20 bd ca 87 02 3c dd a2 5f bc
       0.056730546 -0.03920492 0.007966945 -0.0136496695
0001b0 92 a2 83 3d f8 ed 47 3c 02 24 d1 3d e4 64 97 3d
       0.06427492 0.012202732 0.10211946 0.0739229
0001c0 08 af 3c bc 92 d5 a8 3d a2 86 a8 bc e5 de 25 3d
       -0.01151634 0.0824386 -0.02057201 0.040495772
0001d0 40 03 50 3d a0 5b 99 3d 5e a7 d1 3d a0 c4 17 3d
       0.05078435 0.07488179 0.10237001 0.03705275
0001e0 a1 00 a0 3d 9e 72 57 3c 52 d8 de 3c ee a6 2b bc
       0.0781262 0.013149885 0.027202759 -0.010476811
0001f0 fb 67 6d 3d df e0 3f 3c 8a 79 a8 3d f9 75 aa 3d
       0.05796049 0.011711328 0.08226307 0.08323283
000200 99 fe 25 3c 42 bc 02 3b 24 15 14 bd e6 4a c6 3c
       0.010131502 0.0019948636 -0.036152974 0.024205636
000210 cf de 70 bc e7 ff 7b 3c 3d ad 10 3d 25 33 06 3d
       -0.014701559 0.015380836 0.035321463 0.03276362
000220 15 92 ab 3d 40 05 5f 3c f1 af fe bb fa 85 80 3c
       0.08377472 0.013612092 -0.0077724387 0.015688885
000230 01 57 bc bc e8 47 ff 3c b5 bb 95 bb 8d 76 15 3d
       -0.022990705 0.031162217 -0.0045694956 0.036490012
000240 bd 4e e8 3c 39 04 24 3d 4e 14 93 3d f3 83 05 3d
       0.028357858 0.04004309 0.07181607 0.03259654
000250 87 c2 93 3d 53 dc 38 bc 3d 2e 40 3d 15 d4 c9 3d
       0.072148375 -0.011282998 0.046919096 0.098549046
000260 f8 c4 d0 3b 75 2e a5 3d ef 62 9c 3c b3 0b 8c 3d
       0.0063711368 0.080655016 0.019090144 0.06838169
000270 bb d2 39 bc b6 de be 3c af 34 bc 3d 74 87 a8 3c
       -0.011341746 0.023299556 0.09189736 0.020572402
000280 57 97 34 bd 43 e9 08 bd a6 da 96 3d 02 25 7f 3d
       -0.04408964 -0.03342558 0.07365923 0.062291153
000290 e4 23 f0 3c 3b 5a ab 3d 2f da ad 3c 28 72 80 3d
       0.029313989 0.083668195 0.021222202 0.062717736
0002a0 fc 9f 3a bc a6 b6 5e 3d cc d1 c4 3d e6 c4 0f bc
       -0.011390682 0.054373406 0.09610328 -0.008774972
0002b0 b6 c2 3e bc f1 5d c0 3d d4 d5 b9 3d 8f ee cf 3c
       -0.011643102 0.09392918 0.090739876 0.025382308
0002c0 74 9d 70 3d d0 46 e2 3c 4b e3 c5 3a 54 d5 8b 3d
       0.05874391 0.027621657 0.0015097646 0.068277985
0002d0 39 40 f3 3c 80 2b 9d 3d a0 dc b0 3d e2 b9 4b 3d
       0.02969371 0.076743126 0.08635831 0.04973782
0002e0 11 8e c3 bc 62 71 14 3d 61 7c f6 ba 51 8f 32 3d
       -0.023871453 0.036240943 -0.0018805378 0.04359371
0002f0 a6 b4 2b bd a4 82 03 bd f1 93 6d 3c 74 02 ca 3d
       -0.041920327 -0.03210701 0.014500604 0.09863749
000300 3d ab 0e 3c 66 97 01 bd 08 25 b1 bb 7e 0a 8e bc
       0.008707819 -0.031638525 -0.005406026 -0.017338987
000310 ae d6 5e 3d e3 2e 0d bb fb 44 22 bd 01 8e 5a bc
       0.054403953 -0.002154284 -0.039616566 -0.01333952
000320 61 f5 8e 3d e4 bf 33 3d 36 92 ce 3d 26 2f 20 3d
       0.06980396 0.043884173 0.10086481 0.039107464
000330 73 c9 c1 3d 4c 48 5d 3d 5e 3c 8e 3d 65 bf 79 3d
       0.094622515 0.054024026 0.06945108 0.060973544
000340 df ea 1b 3d 84 68 c8 bc a0 41 c9 3d 57 82 53 3b
       0.038065787 -0.0244639 0.0982697 0.0032273734
000350 53 89 ab bc 1e a2 b6 3d 7d ba 80 3d d2 d8 2b 3d
       -0.020939505 0.0891764 0.0628557 0.041954823
000360 53 08 1c 3d 20 a8 d6 3c 83 a4 09 3d de 1d 18 3d
       0.038093876 0.026203215 0.033604156 0.03713786
000370 95 ed 83 3c d8 a6 17 3c 63 cb 87 3d cd 50 b2 3d
       0.016104499 0.009256087 0.0663059 0.08706818
000380 4d 7b e5 3c 2a db 21 3d e9 c2 8f 3c e8 17 18 3d
       0.028012896 0.03951565 0.017548995 0.037132174
000390 e1 77 91 bb e5 04 a2 3d a9 f0 6d 3b 32 92 be 3d
       -0.0044393395 0.0791109 0.0036306775 0.09305228
0003a0 4b 32 a0 3c 03 bf b1 3b b0 fc 34 bc 78 2c a3 39
       0.019555232 0.0054243817 -0.0110465735 0.00031122915
0003b0 2e b8 0c 3d 1c 5a 95 3d ac 81 7b 3c 87 3f eb 3c
       0.034355335 0.072925776 0.01535074 0.028716816
0003c0 41 05 b7 bc 56 71 b5 3d 8a f1 62 3c fd b8 a2 3c
       -0.022341372 0.08859508 0.013851533 0.0198636
0003d0 b4 5f f5 3c 33 d7 71 3d fc f4 aa 3d 0c b5 d2 3c
       0.029952861 0.05904312 0.08347508 0.025721096
0003e0 cc 01 00 bd f2 d1 30 3c 59 79 d5 3c e5 97 18 3d
       -0.031251714 0.010792242 0.02605884 0.037254233
0003f0 70 74 4c bb 29 01 31 3d fa 53 93 bb d4 94 42 3d
       -0.0031197332 0.043213997 -0.004496095 0.047505215

linear3.weight f4 [2, 256]
000000 fa db 09 bd 48 5a 0c 3d 8e 53 62 bd 96 9f de bc
       -0.03365705 0.034265786 -0.055255465 -0.027175706
000010 5f 3a 5c bd 33 36 d3 3c b6 38 53 bd 65 11 22 bd
       -0.053766605 0.02578268 -0.051567756 -0.03956737
000020 d2 a2 15 bd 4e 4b c6 3d 40 41 1b bb d2 bd 06 3e
       -0.03653223 0.09682332 -0.0023690015 0.13158348
000030 11 b7 c4 3d 61 67 16 bc 84 be d9 3d 57 75 85 3d
       0.0960523 -0.009179921 0.10632041 0.065165214
000040 ef 1d ed 3d 11 15 ba ba c9 4a c3 bd 9c 02 ce bc
       0.11577975 -0.0014196952 -0.095357485 -0.025147729
000050 d2 d0 01 3e ad 13 f3 3d 2e b4 1e bc 9b ba 0e 3b
       0.12677315 0.11868987 -0.009686513 0.0021778706
000060 e4 ce f1 3d f5 8a ae bd 9b b1 06 3e a2 d1 5a 3d
       0.118070394 -0.08522598 0.13153689 0.053422578
000070 bc e2 3c bd 0e 6a ab 3d e4 40 6e bd 10 62 05 3e
       -0.04611467 0.08369838 -0.058167353 0.13025689
000080 22 5d 54 bd eb 6d d7 3c 57 a2 30 3d da ce c2 3d
       -0.05184663 0.02629753 0.04312357 0.0951211
000090 92 d1 ed 3d 4e 33 41 bd 81 5d ef 3d ec db b7 3d
       0.11612238 -0.04716807 0.11687756 0.08977494
0000a0 e3 1e fb 3d 8c 2c c8 bc 58 ba 45 3d c9 b9 a8 3d
       0.122617505 -0.024435304 0.048273414 0.08238561
0000b0 f1 fe 99 3d f9 77 2e bd 69 f3 d9 bd 30 cb ca bc
       0.07519329 -0.042594884 -0.1064213 -0.02475509
0000c0 33 0d a7 3b 88 9b 73 bc 67 ae 32 bd 2d a8 9a 3d
       0.005098009 -0.0148686245 -0.043623354 0.07551608
0000d0 96 f3 59 bd 9a 83 50 bd 3d 1e de bb 63 58 02 bd
       -0.053210817 -0.050906755 -0.006778507 -0.031822573
0000e0 82 59 01 be 8d c4 9f 3d 2c ba 74 3d 57 41 c4 3d
       -0.12631801 0.07801161 0.05974786 0.09582775
0000f0 71 04 fd 3d f9 af 68 bc b4 41 f9 3c 2a 5e 05 3e
       0.12354363 -0.014202111 0.030426838 0.13024202
000100 46 8f ee 3d b9 d4 47 bd bb f9 1e bd 4d 20 a9 bc
       0.11648421 -0.048786853 -0.03881238 -0.020645285
000110 99 bf 16 be d7 d0 fc 3d b0 9b 08 3e f0 9d 58 bc
       -0.14721526 0.123445205 0.1334064 -0.013221249
000120 74 19 e6 3d 14 da 37 be 03 4f ed 3d f3 3b 1f bd
       0.112353235 -0.17954284 0.11587336 -0.03887553
000130 8a 1b 9a 3d 9e 9f 41 bd cf 5e 2a bd 94 61 a0 3d
       0.07524784 -0.047271363 -0.041594323 0.078311116
000140 c4 fb e0 3d 2c 0c ea 3d fa bd 6c bd cc 9d e3 bd
       0.109855205 0.11428103 -0.057798363 -0.11114082
000150 53 60 85 3d b4 e3 f1 3d f2 d6 c9 3b 43 f8 1a bd
       0.06512513 0.11811009 0.0061596567 -0.037834417
000160 62 c2 4e 3c f2 86 fa 3d 13 c4 62 bd ec 2a 54 3d
       0.012619587 0.1223277 -0.055362772 0.051798746
000170 f0 69 b6 3d ee e1 aa 3d 62 51 5c 3d bb e3 74 3d
       0.08906925 0.08343874 0.05378855 0.059787493
000180 a2 cd 52 3d 5e 15 fa 3d eb 33 99 3d 70 34 d4 3d
       0.051465638 0.12211107 0.07480606 0.10361564
000190 e4 c0 03 3e ff 19 b5 bd 03 b2 69 3b 9b e0 10 bd
       0.1286655 -0.08842849 0.0035659082 -0.03537045
0001a0 27 6d fd bd 28 d8 1e bd 48 99 b6 bc 1a 58 2a bd
       -0.12374335 -0.03878036 -0.022289887 -0.041587926
0001b0 6b 60 ea 3d 7a 3f 01 3e 5c 6f 8c 3d ed f5 0b 3e
       0.114441715 0.1262187 0.068571776 0.13668032
0001c0 03 d0 ea bd d3 96 13 3e b4 f1 43 bd 1a 6f 04 3e
       -0.11465456 0.14413004 -0.047837928 0.12933007
0001d0 3e 68 e3 bd 8d ac 7b 3d 55 7c b9 3d 03 34 51 bd
       -0.11103867 0.061443854 0.090569176 -0.051074993
0001e0 f8 d3 f7 3d ae 2c 99 bb 75 25 03 3e 24 06 2c bc
       0.12100977 -0.0046745157 0.12807257 -0.010499511
0001f0 62 94 df 3d ba d2 3c bd 87 c5 11 3e c2 1a bb 3d
       0.10916974 -0.046099402 0.14235507 0.09135963
000200 8d 48 d6 bb 6d f7 86 3d c8 5a fe bc cf 8c 6b 3d
       -0.0065394104 0.065901615 -0.031049147 0.057507332
000210 59 35 78 bd ed 59 6e bb bf f4 7c 3d 1c 6b f2 3d
       -0.06059775 -0.0036369518 0.061756846 0.11836836
000220 ee 71 ac 3d bf fc 2a bd 7c bf 45 bd 92 7a 13 be
       0.08420168 -0.041744944 -0.048278317 -0.14402226
000230 e4 70 54 bb d4 d9 aa 3d d3 a7 0e bd 80 d4 0c 3d
       -0.003241592 0.08342329 -0.03482802 0.034382343
000240 a3 50 72 bd 6f 37 f1 3d db 2a de 3d a4 a4 77 bd
       -0.059158932 0.11778151 0.10848018 -0.060459748
000250 e2 80 63 3d e9 4b 87 3b ab be d7 3d 0a a4 99 3d
       0.055542834 0.0041289222 0.10534414 0.07501991
000260 8c b8 f4 3d e1 6d 16 3e a6 be 34 bd 53 ea b9 3d
       0.11949262 0.14690353 -0.04412713 0.09077897
000270 51 cd af 3b ec d7 e4 bc 03 79 03 3e bf 29 16 bd
       0.005365052 -0.02793499 0.12839131 -0.036660906
000280 00 00 95 3c b9 2c 8d 3d 41 2c 91 3d b8 27 a4 3d
       0.018188477 0.06893296 0.07088519 0.08015388
000290 e4 52 de bd c2 a2 86 3d 79 3d 68 3d 87 a1 ca 3d
       -0.10855654 0.06574012 0.05669925 0.0989409
0002a0 20 c9 02 bd 5a 35 d5 bd cd 6d 08 3e f3 7a 32 be
       -0.03193009 -0.10410567 0.13323136 -0.17429714
0002b0 b6 e5 d7 bd 2f b5 10 3e 3d 92 02 3e 59 44 2a bd
       -0.10541861 0.14131616 0.12751098 -0.041569088
0002c0 93 12 24 3d 2c 48 f9 bd 86 6a 01 3c f2 c8 a4 3d
       0.040056776 -0.12171969 0.007898932 0.0804614
0002d0 92 7a 92 3d 3e 62 08 3e 88 f9 aa 3d 78 fa a0 3c
       0.07152285 0.13318726 0.083483756 0.019650683
0002e0 60 72 19 bb 66 bc 94 3d 51 aa ea bc 3e fc 8c bd
       -0.002341412 0.07262497 -0.028645666 -0.06884049
0002f0 93 4b 71 bd f0 34 7a 3c 8e cf 2b bd d9 cf 09 3e
       -0.058909964 0.01527141 -0.041945986 0.13458194
000300 55 ec 5d bd f0 0d 06 3c b2 cb bf bc 1e e5 65 bd
       -0.054180462 0.008182034 -0.02341256 -0.056126706
000310 b0 c6 9a 3d 3e 7c e8 bc cc 1f 17 3d 37 12 48 bd
       0.07557428 -0.028379556 0.03689556 -0.048845496
000320 5f d5 0e 3e 13 a3 51 3c e3 d7 09 3e f2 6c 4b bd
       0.13948582 0.012795228 0.1346126 -0.049664445
000330 32 24 f4 3d 9d 51 cf 3d c1 9e 99 3d 08 bd 11 3e
       0.11920966 0.101229884 0.07500983 0.14232266
000340 e1 9f cf bc 06 e3 93 bc 59 dc c2 3d 1d 69 df 3d
       -0.02534479 -0.01805259 0.09514684 0.10908721
000350 3e 94 8b 3d 8e cb de 3d 18 40 9e 3d 6d 42 06 3e
       0.06815384 0.10878669 0.07727069 0.13111277
000360 2b 75 c4 3d 66 5f 23 3e 02 53 0c 3d 79 ea 25 3d
       0.095926605 0.1595436 0.03425885 0.040506814
000370 e1 5b 0d bd 62 6c 1f 3d b5 5b f8 3d c6 b5 95 3d
       -0.03451145 0.03892172 0.12126867 0.07310061
000380 cb 9a d2 3d 0b 93 51 bd 3b e4 0c be f5 f3 22 bd
       0.10283431 -0.05116562 -0.13758938 -0.039783437
000390 3a 6a 55 bd 20 bb 03 3e b4 bc 13 bd e2 29 a3 3d
       -0.05210326 0.12864351 -0.036068633 0.07966973
0003a0 62 1f 30 be 40 cf 21 bc ad cb 4f bc e1 83 e6 bd
       -0.17199472 -0.009876072 -0.012682837 -0.11255623
0003b0 35 b1 d1 3d c3 99 e0 3d 8c 40 27 bd fb 27 65 bb
       0.10238878 0.10966828 -0.04083304 -0.0034966457
0003c0 5e ca 1e bd 46 a3 9b 3d 7a f7 87 3d d9 53 ef 3c
       -0.03876721 0.07599501 0.06638999 0.029214786
0003d0 5e a6 a9 3d 51 72 d9 3d c8 7d b0 3d 69 e8 bf 3c
       0.08283685 0.10617507 0.08617741 0.023426251
0003e0 4c 05 6c 3d 29 7d 7f 3b 5c 7f bc 3d 7f a8 f1 3b
       0.05762224 0.0038984513 0.092039794 0.0073748226
0003f0 f9 79 c3 bc 36 30 46 bd 9d 39 e4 bd b9 eb f3 3d
       -0.023861872 -0.04838582 -0.11143801 0.11910195

linear3.bias f4 [2]
000000 0f 41 25 3d db ba bb 3d
       0.040345248 0.09166499
